graphs_labeled_v6_feat837_sample/7BEP_B_000162.npz (npz, 17533 bytes, 2 tensors)

x_feat f4 [218, 15]
00000000: 2f7c ab3f 59a2 4ebf ff88 abbe 9499 99be
00000010: 62b9 a2be d70e 4cc0 5064 46c0 5064 46c0
00000020: 056b 05c0 0000 0000 e906 5540 789e 0ec0
00000030: 7f30 5abf 6b03 35bf 0000 0000 2f7c ab3f
00000040: 59a2 4ebf ff88 abbe 9499 99be 035f 4940
00000050: 0bf9 eebf 3455 18c0 3455 18c0 6c4d 4ac0
00000060: 0000 0000 e906 5540 789e 0ec0 7f30 5abf
00000070: 6b03 35bf 0000 0000 2f7c ab3f 59a2 4ebf
00000080: ff88 abbe 9499 99be 62b9 a2be 0bf9 eebf
00000090: 318c d4bf 318c d4bf 32a7 10bf 0000 0000
000000a0: 62a1 2340 789e 0ec0 7f30 5abf 05d7 253f
000000b0: 0000 0000 2f7c ab3f 59a2 4ebf ff88 abbe
000000c0: 9499 99be 62b9 a2be ba66 9abf a64d 01c0
000000d0: a64d 01c0 9807 1fc0 0000 0000 cb65 1b40
000000e0: 789e 0ec0 7f30 5abf 17a6 5f3f 0000 0000
000000f0: 2f7c ab3f 59a2 4ebf ff88 abbe 9499 99be
00000100: 62b9 a2be d70e 4cc0 3455 18c0 3455 18c0
00000110: 5788 c33e 0000 0000 df6e 953f 789e 0ec0
00000120: 7f30 5abf 408b 4540 0000 0000 5815 3fbf
00000130: 59a2 4ebf ff88 abbe 4d55 5540 62b9 a2be
00000140: afc5 21c0 318c d4bf 318c d4bf 4ecf 933f
00000150: 0000 0000 62a1 2340 e092 b5bf 7f30 5abf
00000160: 6b03 35bf 0000 0000 2f7c ab3f 59a2 4ebf
00000170: ff88 abbe 9499 99be 62b9 a2be d0a8 0bbf
00000180: 147d a6bf 147d a6bf 89e9 a9bf 0000 0000
00000190: 6e38 39bf 982c 1b3f 7f30 5abf 6cfd d43f
000001a0: 0000 0000 5815 3fbf 6894 9e3f ff88 abbe
000001b0: 9499 99be 62b9 a2be d0a8 0bbf 037e 62be
000001c0: 037e 62be bcec 593f 0000 0000 ea5f c33e
000001d0: f3eb 2abe 7f30 5abf 86d8 1e3e 0000 0000
000001e0: 2f7c ab3f 59a2 4ebf ff88 abbe 9499 99be
000001f0: 62b9 a2be 9bde eb3d e80a f83f e80a f83f
00000200: c752 fe3f 0000 0000 ab75 8fbf e64c b83f
00000210: 573d 343e 6b03 35bf 0000 0000 5815 3fbf
00000220: 6894 9e3f ff88 abbe 9499 99be 62b9 a2be
00000230: 9bde eb3d defa 0d3e defa 0d3e 47aa d73e
00000240: 0000 0000 6e38 39bf d50e 8a3f ebc4 fdbd
00000250: 6b03 35bf 0000 0000 5815 3fbf 6894 9e3f
00000260: ff88 abbe 9499 99be 62b9 a2be 9bde eb3d
00000270: e80a f83f e80a f83f 134d b53f 0000 0000
00000280: ab75 8fbf e64c b83f 2a21 adbe 6b03 35bf
00000290: 0000 0000 5815 3fbf 6894 9e3f ff88 abbe
000002a0: 9499 99be 62b9 a2be d0a8 0bbf b9bd 14bf
000002b0: b9bd 14bf 50f5 a1bf 0000 0000 d357 c4bf
000002c0: 97b7 de3f 7f30 5abf 6b03 35bf 0000 0000
000002d0: 5815 3fbf 59a2 4ebf ff88 abbe 9499 99be
000002e0: 62b9 a2be ba66 9abf b9bd 14bf b9bd 14bf
000002f0: 6082 35bf 0000 0000 2b60 7ebf 1fa4 1340
00000300: 7f30 5abf 6b03 35bf 0000 0000 5815 3fbf
00000310: 6894 9e3f ff88 abbe 9499 99be 62b9 a2be
00000320: d0a8 0bbf 037e 62be 037e 62be 44a7 da3e
00000330: 0000 0000 41a1 cabf 7624 5d3f d34f 6cbd
00000340: 6b03 35bf 0000 0000 5815 3fbf 6894 9e3f
00000350: ff88 abbe 9499 99be 62b9 a2be 9bde eb3d
00000360: b9bd 14bf b9bd 14bf ff58 30bf 0000 0000
00000370: 6021 e8be cbb4 203d f351 b23c be22 773e
00000380: 0000 0000 2f7c ab3f 59a2 4ebf ff88 abbe
00000390: 9499 99be 62b9 a2be d0a8 0bbf 037e 62be
000003a0: 037e 62be 36d5 d13e 0000 0000 f2c2 8bbf
000003b0: 7624 5d3f d34f 6cbd 86d8 1e3e 0000 0000
000003c0: 5815 3fbf 6894 9e3f ff88 abbe 9499 99be
000003d0: 62b9 a2be 77a0 463f b9bd 14bf b9bd 14bf
000003e0: a61e 88bf 0000 0000 df6e 953f a51b 8cbf
000003f0: f351 b23c be22 773e 0000 0000 2f7c ab3f
1.3397273 -0.8071647 -0.33502957 -0.29999983 -0.3178206 -3.1884058 -3.0998726 -3.0998726
-2.084657 0.0 3.3285468 -2.2284222 -0.8523025 -0.7070834 0.0 1.3397273
-0.8071647 -0.33502957 -0.29999983 3.146424 -1.8669752 -2.3802004 -2.3802004 -3.1609755
0.0 3.3285468 -2.2284222 -0.8523025 -0.7070834 0.0 1.3397273 -0.8071647
-0.33502957 -0.29999983 -0.3178206 -1.8669752 -1.6605283 -1.6605283 -0.5650512 0.0
2.556725 -2.2284222 -0.8523025 0.6478122 0.0 1.3397273 -0.8071647 -0.33502957
-0.29999983 -0.3178206 -1.20626 -2.0203643 -2.0203643 -2.4848385 0.0 2.428088
-2.2284222 -0.8523025 0.8736281 0.0 1.3397273 -0.8071647 -0.33502957 -0.29999983
-0.3178206 -3.1884058 -2.3802004 -2.3802004 0.38189957 0.0 1.167446 -2.2284222
-0.8523025 3.0866241 0.0 -0.7464194 -0.8071647 -0.33502957 3.3333313 -0.3178206
-2.5276906 -1.6605283 -1.6605283 1.1547639 0.0 2.556725 -1.4185448 -0.8523025
-0.7070834 0.0 1.3397273 -0.8071647 -0.33502957 -0.29999983 -0.3178206 -0.5455446
-1.3006921 -1.3006921 -1.3274394 0.0 -0.7235173 0.6061492 -0.8523025 1.6639838
0.0 -0.7464194 1.238904 -0.33502957 -0.29999983 -0.3178206 -0.5455446 -0.22118382
-0.22118382 0.85126853 0.0 0.38159114 -0.1669157 -0.8523025 0.15512285 0.0
1.3397273 -0.8071647 -0.33502957 -0.29999983 -0.3178206 0.11517068 1.9378328 1.9378328
1.9869012 0.0 -1.1207784 1.4398468 0.17601524 -0.7070834 0.0 -0.7464194
1.238904 -0.33502957 -0.29999983 -0.3178206 0.11517068 0.1386523 0.1386523 0.421221
0.0 -0.7235173 1.0785776 -0.12391075 -0.7070834 0.0 -0.7464194 1.238904
-0.33502957 -0.29999983 -0.3178206 0.11517068 1.9378328 1.9378328 1.4164146 0.0
-1.1207784 1.4398468 -0.33814365 -0.7070834 0.0 -0.7464194 1.238904 -0.33502957
-0.29999983 -0.3178206 -0.5455446 -0.58101994 -0.58101994 -1.2652988 0.0 -1.5339302
1.7399777 -0.8523025 -0.7070834 0.0 -0.7464194 -0.8071647 -0.33502957 -0.29999983
-0.3178206 -1.20626 -0.58101994 -0.58101994 -0.7090206 0.0 -0.9936549 2.3068922
-0.8523025 -0.7070834 0.0 -0.7464194 1.238904 -0.33502957 -0.29999983 -0.3178206
-0.5455446 -0.22118382 -0.22118382 0.4270574 0.0 -1.5830461 0.8638376 -0.057693314
-0.7070834 0.0 -0.7464194 1.238904 -0.33502957 -0.29999983 -0.3178206 0.11517068
-0.58101994 -0.58101994 -0.688858 0.0 -0.45337963 0.039234918 0.021767592 0.24134347
0.0 1.3397273 -0.8071647 -0.33502957 -0.29999983 -0.3178206 -0.5455446 -0.22118382
-0.22118382 0.4098298 0.0 -1.0918868 0.8638376 -0.057693314 0.15512285 0.0
-0.7464194 1.238904 -0.33502957 -0.29999983 -0.3178206 0.775886 -0.58101994 -0.58101994
-1.0634353 0.0 1.167446 -1.0945936 0.021767592 0.24134347 0.0 1.3397273

edge_dist f4 [2532]
00000000: 5cbb 7340 61e0 d240 5cbb 7340 9a19 7440
00000010: cb2f d840 61e0 d240 9a19 7440 75c1 7440
00000020: aff8 db40 151e f740 cb2f d840 75c1 7440
00000030: e24d 7440 1f07 b440 aff8 db40 e24d 7440
00000040: aa30 d040 151e f740 1f07 b440 aa30 d040
00000050: 93f1 7240 1165 c840 93f1 7240 7f01 7340
00000060: 69ac d840 3008 d240 0545 ae40 c6c4 b940
00000070: 1165 c840 7f01 7340 17a8 7340 2cfa d440
00000080: 6b3c b840 4c7f a740 dc34 f540 6ba9 f040
00000090: 2a4a fb40 69ac d840 17a8 7340 cff8 7340
000000a0: fc1a d040 9f8e cf40 bebb ad40 8261 9340
000000b0: 6dbc cb40 9c6e fb40 70e4 fc40 3a8e f740
000000c0: 38fb f140 db10 d640 d46f a240 f11e fb40
000000d0: 2cfa d440 cff8 7340 006b 7240 2d8f d640
000000e0: 9d54 b340 099c 9b40 0d1e ce40 1f69 fc40
000000f0: 1733 bb40 4caf df40 fc1a d040 006b 7240
00000100: 474d 7440 eaa8 c740 5def dc40 b69f ea40
00000110: 4c3d b240 a385 8e40 3e27 c740 141b fd40
00000120: ec34 f140 6c25 b940 370e c540 85f2 ca40
00000130: 9b2c dc40 2d8f d640 474d 7440 e71e 3a40
00000140: 2d5d ab40 ab3b c040 d33d a140 2709 cf40
00000150: e634 dc40 eaa8 c740 e71e 3a40 af2e 7240
00000160: 6e81 b140 256c d940 defa cd40 4f93 e040
00000170: cf15 c740 5def dc40 2d5d ab40 af2e 7240
00000180: b8b7 7340 cd22 e040 7293 fc40 d65a db40
00000190: 6239 9e40 eae7 d140 6e81 b140 b8b7 7340
000001a0: 79d0 7240 194a e240 8b5a ae40 948f 9640
000001b0: 61cd c440 857f f240 256c d940 cd22 e040
000001c0: 79d0 7240 84bd 7240 9ca2 d240 95fe f240
000001d0: 8680 cb40 77eb a740 7957 bc40 194a e240
000001e0: 84bd 7240 10d6 7340 bccf e440 680d bd40
000001f0: 52dc 8640 5979 a140 7f20 be40 9ca2 d240
00000200: 10d6 7340 0196 7340 781c de40 a3dd cf40
00000210: dae4 ee40 bb3b f940 16d2 f440 7705 cb40
00000220: 0912 9d40 3f43 aa40 bccf e440 0196 7340
00000230: f486 7240 6eab c440 e439 b240 c7e6 dc40
00000240: 41c6 ab40 81b3 9b40 5291 cb40 781c de40
00000250: f486 7240 a20f 7340 8457 b540 084f e040
00000260: a8ce 9f40 36ff a540 8bc6 cc40 85f0 e040
00000270: c7ab f340 a9c8 f740 6eab c440 a20f 7340
00000280: f3ad 7340 d27a d340 18b5 f540 1002 8840
00000290: eccb 9440 b664 cb40 a3dd cf40 e439 b240
000002a0: 8457 b540 f3ad 7340 8482 7240 7632 c940
000002b0: 2ca2 e240 ee49 a940 cbef a940 d27a d340
000002c0: 8482 7240 3fe6 7340 33fb d540 7ca0 e440
000002d0: c6cd b440 ede4 9440 2e3a a840 41dd c340
000002e0: dae4 ee40 7632 c940 3fe6 7340 0d8f 7340
000002f0: e190 d740 7523 b740 1160 a240 ce62 d340
00000300: 83da f240 e11a d840 33fb d540 0d8f 7340
00000310: ad0d 7440 2a01 d440 7fdc d040 ab8c b940
00000320: aa60 9740 c3b5 d340 b69f ea40 ab3b c040
00000330: defa cd40 e190 d740 ad0d 7440 5490 7340
00000340: a98b db40 6e11 b040 b52c a340 2ea6 d040
00000350: 06ac e740 4c3d b240 d33d a140 4f93 e040
00000360: 2a01 d440 5490 7340 10ab 7340 1cf3 d040
00000370: d9fe e940 c1aa ba40 e319 9040 ca73 ce40
00000380: 9f8e cf40 9d54 b340 a385 8e40 2709 cf40
00000390: a98b db40 10ab 7340 dc23 7440 145c d640
000003a0: 2861 fd40 ef01 c740 55cb a240 532b c340
000003b0: c3b7 d040 2cc5 ed40 bebb ad40 099c 9b40
000003c0: 3e27 c740 1cf3 d040 dc23 7440 7214 7440
000003d0: c0e2 d140 0dc4 ae40 4ff6 a240 0244 cd40
000003e0: 3008 d240 6b3c b840 8261 9340 0d1e ce40
000003f0: 145c d640 7214 7440 a078 7340 df76 aa40
3.8083105 6.58989 3.8083105 3.8140626 6.755834 6.58989 3.8140626 3.8243077
6.874107 7.722422 6.755834 3.8243077 3.8172536 5.6258693 6.874107 3.8172536
6.5059404 7.722422 5.6258693 6.5059404 3.7959945 6.262337 3.7959945 3.7969663
6.771046 6.5634995 5.445925 5.80527 6.262337 3.7969663 3.8071344 6.6555386
5.7573752 5.234289 7.6627026 7.520681 7.852803 6.771046 3.8071344 3.812061
6.503294 6.48616 5.4291677 4.605653 6.366751 7.857252 7.9028854 7.7361116
7.5619164 6.6895576 5.076151 7.847527 6.6555386 3.812061 3.7877808 6.7049775
5.604079 4.8627973 6.4411683 7.887832 5.8499866 6.9901485 6.503294 3.7877808
3.8172166 6.2393694 6.904219 7.331996 5.5699825 4.453813 6.2235403 7.9095554
7.53771 5.785818 6.157985 6.3421044 6.880445 6.7049775 3.8172166 2.9081361
5.355124 6.0072837 5.038797 6.469867 6.8814573 6.2393694 2.9081361 3.7840993
5.5470495 6.794451 6.4368734 7.017982 6.221412 6.904219 5.355124 3.7840993
3.8080883 7.004248 7.8929987 6.8548384 4.9445047 6.55956 5.5470495 3.8080883
3.7939742 7.071545 5.4485526 4.7050266 6.1500707 7.5780663 6.794451 7.004248
3.7939742 3.792817 6.58235 7.593577 6.359439 5.2474933 5.885678 7.071545
3.792817 3.8099403 7.150358 5.9078865 4.2143946 5.046063 5.941467 6.58235
3.8099403 3.8060305 6.940975 6.4958053 7.465436 7.7885413 7.6506453 6.344417
4.9084516 5.3207088 7.150358 3.8060305 3.789487 6.1459265 5.5695667 6.903171
5.367951 4.865662 6.3614893 6.940975 3.789487 3.7978292 5.666933 7.0096474
4.9939766 5.1874037 6.399236 7.0293603 7.614719 7.7432446 6.1459265 3.7978292
3.807492 6.6087427 7.678356 4.250252 4.649893 6.356044 6.4958053 5.5695667
5.666933 3.807492 3.789216 6.28741 7.0822964 5.2902746 5.3105216 6.6087427
3.789216 3.810928 6.686914 7.1445904 5.650119 4.652945 5.257102 6.1207585
7.465436 6.28741 3.810928 3.8056061 6.7364354 5.7230783 5.074227 6.605811
7.589174 6.753281 6.686914 3.8056061 3.8133347 6.625142 6.526916 5.7984214
4.73055 6.6159377 7.331996 6.0072837 6.4368734 6.7364354 3.8133347 3.805684
6.8607984 5.5021276 5.0992074 6.5202856 7.239749 5.5699825 5.038797 7.017982
6.625142 3.805684 3.8073158 6.5296764 7.3123593 5.833344 4.50316 6.4516344
6.48616 5.604079 4.453813 6.469867 6.8607984 3.8073158 3.8146887 6.69874
7.91811 6.218986 5.087321 6.0990386 6.522432 7.430319 5.4291677 4.8627973
6.2235403 6.5296764 3.8146887 3.813748 6.5589294 5.461432 5.092567 6.4145517
6.5634995 5.7573752 4.605653 6.4411683 6.69874 3.813748 3.8042374 5.3270106
